{"config": {"name": "model_1", "input_layers": [["input_2", 0, 0]], "layers": [{"config": {"batch_input_shape": [null, 360, 480, 1], "name": "input_2", "dtype": "float32", "sparse": false}, "name": "input_2", "inbound_nodes": [], "class_name": "InputLayer"}, {"config": {"data_format": "channels_last", "name": "zero_padding2d_2", "dtype": "float32", "padding": [[12, 12], [16, 16]], "trainable": true}, "name": "zero_padding2d_2", "inbound_nodes": [[["input_2", 0, 0, {}]]], "class_name": "ZeroPadding2D"}, {"config": {"activation": "linear", "use_bias": true, "bias_initializer": {"config": {}, "class_name": "Zeros"}, "bias_constraint": null, "kernel_regularizer": null, "dtype": "float32", "data_format": "channels_last", "name": "conv2d_14", "kernel_constraint": null, "padding": "same", "filters": 64, "kernel_size": [7, 7], "strides": [1, 1], "bias_regularizer": null, "trainable": true, "dilation_rate": [1, 1], "kernel_initializer": {"config": {"scale": 1.0, "distribution": "uniform", "seed": null, "mode": "fan_avg"}, "class_name": "VarianceScaling"}, "activity_regularizer": null}, "name": "conv2d_14", "inbound_nodes": [[["zero_padding2d_2", 0, 0, {}]]], "class_name": "Conv2D"}, {"config": {"dtype": "float32", "beta_regularizer": null, "momentum": 0.99, "gamma_constraint": null, "epsilon": 0.001, "scale": true, "center": true, "name": "batch_normalization_14", "beta_constraint": null, "gamma_initializer": {"config": {}, "class_name": "Ones"}, "moving_variance_initializer": {"config": {}, "class_name": "Ones"}, "beta_initializer": {"config": {}, "class_name": "Zeros"}, "trainable": true, "axis": 3, "moving_mean_initializer": {"config": {}, "class_name": "Zeros"}, "gamma_regularizer": null}, "name": "batch_normalization_14", "inbound_nodes": [[["conv2d_14", 0, 0, {}]]], "class_name": "BatchNormalization"}, {"config": {"activation": "relu", "name": "activation_14", "dtype": "float32", "trainable": true}, "name": "activation_14", "inbound_nodes": [[["batch_normalization_14", 0, 0, {}]]], "class_name": "Activation"}, {"config": {"activation": "linear", "use_bias": true, "bias_initializer": {"config": {}, "class_name": "Zeros"}, "bias_constraint": null, "kernel_regularizer": null, "dtype": "float32", "data_format": "channels_last", "name": "conv2d_15", "kernel_constraint": null, "padding": "same", "filters": 64, "kernel_size": [7, 7], "strides": [1, 1], "bias_regularizer": null, "trainable": true, "dilation_rate": [1, 1], "kernel_initializer": {"config": {"scale": 1.0, "distribution": "uniform", "seed": null, "mode": "fan_avg"}, "class_name": "VarianceScaling"}, "activity_regularizer": null}, "name": "conv2d_15", "inbound_nodes": [[["activation_14", 0, 0, {}]]], "class_name": "Conv2D"}, {"config": {"dtype": "float32", "beta_regularizer": null, "momentum": 0.99, "gamma_constraint": null, "epsilon": 0.001, "scale": true, "center": true, "name": "batch_normalization_15", "beta_constraint": null, "gamma_initializer": {"config": {}, "class_name": "Ones"}, "moving_variance_initializer": {"config": {}, "class_name": "Ones"}, "beta_initializer": {"config": {}, "class_name": "Zeros"}, "trainable": true, "axis": 3, "moving_mean_initializer": {"config": {}, "class_name": "Zeros"}, "gamma_regularizer": null}, "name": "batch_normalization_15", "inbound_nodes": [[["conv2d_15", 0, 0, {}]]], "class_name": "BatchNormalization"}, {"config": {"activation": "relu", "name": "activation_15", "dtype": "float32", "trainable": true}, "name": "activation_15", "inbound_nodes": [[["batch_normalization_15", 0, 0, {}]]], "class_name": "Activation"}, {"config": {"name": "max_pooling_with_indices_6", "dtype": "float32", "trainable": true}, "name": "max_pooling_with_indices_6", "inbound_nodes": [[["activation_15", 0, 0, {}]]], "class_name": "MaxPoolingWithIndices"}, {"config": {"activation": "linear", "use_bias": true, "bias_initializer": {"config": {}, "class_name": "Zeros"}, "bias_constraint": null, "kernel_regularizer": null, "dtype": "float32", "data_format": "channels_last", "name": "conv2d_16", "kernel_constraint": null, "padding": "same", "filters": 64, "kernel_size": [7, 7], "strides": [1, 1], "bias_regularizer": null, "trainable": true, "dilation_rate": [1, 1], "kernel_initializer": {"config": {"scale": 1.0, "distribution": "uniform", "seed": null, "mode": "fan_avg"}, "class_name": "VarianceScaling"}, "activity_regularizer": null}, "name": "conv2d_16", "inbound_nodes": [[["max_pooling_with_indices_6", 0, 0, {}]]], "class_name": "Conv2D"}, {"config": {"dtype": "float32", "beta_regularizer": null, "momentum": 0.99, "gamma_constraint": null, "epsilon": 0.001, "scale": true, "center": true, "name": "batch_normalization_16", "beta_constraint": null, "gamma_initializer": {"config": {}, "class_name": "Ones"}, "moving_variance_initializer": {"config": {}, "class_name": "Ones"}, "beta_initializer": {"config": {}, "class_name": "Zeros"}, "trainable": true, "axis": 3, "moving_mean_initializer": {"config": {}, "class_name": "Zeros"}, "gamma_regularizer": null}, "name": "batch_normalization_16", "inbound_nodes": [[["conv2d_16", 0, 0, {}]]], "class_name": "BatchNormalization"}, {"config": {"activation": "relu", "name": "activation_16", "dtype": "float32", "trainable": true}, "name": "activation_16", "inbound_nodes": [[["batch_normalization_16", 0, 0, {}]]], "class_name": "Activation"}, {"config": {"activation": "linear", "use_bias": true, "bias_initializer": {"config": {}, "class_name": "Zeros"}, "bias_constraint": null, "kernel_regularizer": null, "dtype": "float32", "data_format": "channels_last", "name": "conv2d_17", "kernel_constraint": null, "padding": "same", "filters": 64, "kernel_size": [7, 7], "strides": [1, 1], "bias_regularizer": null, "trainable": true, "dilation_rate": [1, 1], "kernel_initializer": {"config": {"scale": 1.0, "distribution": "uniform", "seed": null, "mode": "fan_avg"}, "class_name": "VarianceScaling"}, "activity_regularizer": null}, "name": "conv2d_17", "inbound_nodes": [[["activation_16", 0, 0, {}]]], "class_name": "Conv2D"}, {"config": {"dtype": "float32", "beta_regularizer": null, "momentum": 0.99, "gamma_constraint": null, "epsilon": 0.001, "scale": true, "center": true, "name": "batch_normalization_17", "beta_constraint": null, "gamma_initializer": {"config": {}, "class_name": "Ones"}, "moving_variance_initializer": {"config": {}, "class_name": "Ones"}, "beta_initializer": {"config": {}, "class_name": "Zeros"}, "trainable": true, "axis": 3, "moving_mean_initializer": {"config": {}, "class_name": "Zeros"}, "gamma_regularizer": null}, "name": "batch_normalization_17", "inbound_nodes": [[["conv2d_17", 0, 0, {}]]], "class_name": "BatchNormalization"}, {"config": {"activation": "relu", "name": "activation_17", "dtype": "float32", "trainable": true}, "name": "activation_17", "inbound_nodes": [[["batch_normalization_17", 0, 0, {}]]], "class_name": "Activation"}, {"config": {"name": "max_pooling_with_indices_7", "dtype": "float32", "trainable": true}, "name": "max_pooling_with_indices_7", "inbound_nodes": [[["activation_17", 0, 0, {}]]], "class_name": "MaxPoolingWithIndices"}, {"config": {"activation": "linear", "use_bias": true, "bias_initializer": {"config": {}, "class_name": "Zeros"}, "bias_constraint": null, "kernel_regularizer": null, "dtype": "float32", "data_format": "channels_last", "name": "conv2d_18", "kernel_constraint": null, "padding": "same", "filters": 64, "kernel_size": [7, 7], "strides": [1, 1], "bias_regularizer": null, "trainable": true, "dilation_rate": [1, 1], "kernel_initializer": {"config": {"scale": 1.0, "distribution": "uniform", "seed": null, "mode": "fan_avg"}, "class_name": "VarianceScaling"}, "activity_regularizer": null}, "name": "conv2d_18", "inbound_nodes": [[["max_pooling_with_indices_7", 0, 0, {}]]], "class_name": "Conv2D"}, {"config": {"dtype": "float32", "beta_regularizer": null, "momentum": 0.99, "gamma_constraint": null, "epsilon": 0.001, "scale": true, "center": true, "name": "batch_normalization_18", "beta_constraint": null, "gamma_initializer": {"config": {}, "class_name": "Ones"}, "moving_variance_initializer": {"config": {}, "class_name": "Ones"}, "beta_initializer": {"config": {}, "class_name": "Zeros"}, "trainable": true, "axis": 3, "moving_mean_initializer": {"config": {}, "class_name": "Zeros"}, "gamma_regularizer": null}, "name": "batch_normalization_18", "inbound_nodes": [[["conv2d_18", 0, 0, {}]]], "class_name": "BatchNormalization"}, {"config": {"activation": "relu", "name": "activation_18", "dtype": "float32", "trainable": true}, "name": "activation_18", "inbound_nodes": [[["batch_normalization_18", 0, 0, {}]]], "class_name": "Activation"}, {"config": {"activation": "linear", "use_bias": true, "bias_initializer": {"config": {}, "class_name": "Zeros"}, "bias_constraint": null, "kernel_regularizer": null, "dtype": "float32", "data_format": "channels_last", "name": "conv2d_19", "kernel_constraint": null, "padding": "same", "filters": 64, "kernel_size": [7, 7], "strides": [1, 1], "bias_regularizer": null, "trainable": true, "dilation_rate": [1, 1], "kernel_initializer": {"config": {"scale": 1.0, "distribution": "uniform", "seed": null, "mode": "fan_avg"}, "class_name": "VarianceScaling"}, "activity_regularizer": null}, "name": "conv2d_19", "inbound_nodes": [[["activation_18", 0, 0, {}]]], "class_name": "Conv2D"}, {"config": {"dtype": "float32", "beta_regularizer": null, "momentum": 0.99, "gamma_constraint": null, "epsilon": 0.001, "scale": true, "center": true, "name": "batch_normalization_19", "beta_constraint": null, "gamma_initializer": {"config": {}, "class_name": "Ones"}, "moving_variance_initializer": {"config": {}, "class_name": "Ones"}, "beta_initializer": {"config": {}, "class_name": "Zeros"}, "trainable": true, "axis": 3, "moving_mean_initializer": {"config": {}, "class_name": "Zeros"}, "gamma_regularizer": null}, "name": "batch_normalization_19", "inbound_nodes": [[["conv2d_19", 0, 0, {}]]], "class_name": "BatchNormalization"}, {"config": {"activation": "relu", "name": "activation_19", "dtype": "float32", "trainable": true}, "name": "activation_19", "inbound_nodes": [[["batch_normalization_19", 0, 0, {}]]], "class_name": "Activation"}, {"config": {"activation": "linear", "use_bias": true, "bias_initializer": {"config": {}, "class_name": "Zeros"}, "bias_constraint": null, "kernel_regularizer": null, "dtype": "float32", "data_format": "channels_last", "name": "conv2d_20", "kernel_constraint": null, "padding": "same", "filters": 64, "kernel_size": [7, 7], "strides": [1, 1], "bias_regularizer": null, "trainable": true, "dilation_rate": [1, 1], "kernel_initializer": {"config": {"scale": 1.0, "distribution": "uniform", "seed": null, "mode": "fan_avg"}, "class_name": "VarianceScaling"}, "activity_regularizer": null}, "name": "conv2d_20", "inbound_nodes": [[["activation_19", 0, 0, {}]]], "class_name": "Conv2D"}, {"config": {"dtype": "float32", "beta_regularizer": null, "momentum": 0.99, "gamma_constraint": null, "epsilon": 0.001, "scale": true, "center": true, "name": "batch_normalization_20", "beta_constraint": null, "gamma_initializer": {"config": {}, "class_name": "Ones"}, "moving_variance_initializer": {"config": {}, "class_name": "Ones"}, "beta_initializer": {"config": {}, "class_name": "Zeros"}, "trainable": true, "axis": 3, "moving_mean_initializer": {"config": {}, "class_name": "Zeros"}, "gamma_regularizer": null}, "name": "batch_normalization_20", "inbound_nodes": [[["conv2d_20", 0, 0, {}]]], "class_name": "BatchNormalization"}, {"config": {"activation": "relu", "name": "activation_20", "dtype": "float32", "trainable": true}, "name": "activation_20", "inbound_nodes": [[["batch_normalization_20", 0, 0, {}]]], "class_name": "Activation"}, {"config": {"name": "max_pooling_with_indices_8", "dtype": "float32", "trainable": true}, "name": "max_pooling_with_indices_8", "inbound_nodes": [[["activation_20", 0, 0, {}]]], "class_name": "MaxPoolingWithIndices"}, {"config": {"activation": "linear", "use_bias": true, "bias_initializer": {"config": {}, "class_name": "Zeros"}, "bias_constraint": null, "kernel_regularizer": null, "dtype": "float32", "data_format": "channels_last", "name": "conv2d_21", "kernel_constraint": null, "padding": "same", "filters": 64, "kernel_size": [7, 7], "strides": [1, 1], "bias_regularizer": null, "trainable": true, "dilation_rate": [1, 1], "kernel_initializer": {"config": {"scale": 1.0, "distribution": "uniform", "seed": null, "mode": "fan_avg"}, "class_name": "VarianceScaling"}, "activity_regularizer": null}, "name": "conv2d_21", "inbound_nodes": [[["max_pooling_with_indices_8", 0, 0, {}]]], "class_name": "Conv2D"}, {"config": {"dtype": "float32", "beta_regularizer": null, "momentum": 0.99, "gamma_constraint": null, "epsilon": 0.001, "scale": true, "center": true, "name": "batch_normalization_21", "beta_constraint": null, "gamma_initializer": {"config": {}, "class_name": "Ones"}, "moving_variance_initializer": {"config": {}, "class_name": "Ones"}, "beta_initializer": {"config": {}, "class_name": "Zeros"}, "trainable": true, "axis": 3, "moving_mean_initializer": {"config": {}, "class_name": "Zeros"}, "gamma_regularizer": null}, "name": "batch_normalization_21", "inbound_nodes": [[["conv2d_21", 0, 0, {}]]], "class_name": "BatchNormalization"}, {"config": {"activation": "relu", "name": "activation_21", "dtype": "float32", "trainable": true}, "name": "activation_21", "inbound_nodes": [[["batch_normalization_21", 0, 0, {}]]], "class_name": "Activation"}, {"config": {"activation": "linear", "use_bias": true, "bias_initializer": {"config": {}, "class_name": "Zeros"}, "bias_constraint": null, "kernel_regularizer": null, "dtype": "float32", "data_format": "channels_last", "name": "conv2d_22", "kernel_constraint": null, "padding": "same", "filters": 64, "kernel_size": [7, 7], "strides": [1, 1], "bias_regularizer": null, "trainable": true, "dilation_rate": [1, 1], "kernel_initializer": {"config": {"scale": 1.0, "distribution": "uniform", "seed": null, "mode": "fan_avg"}, "class_name": "VarianceScaling"}, "activity_regularizer": null}, "name": "conv2d_22", "inbound_nodes": [[["activation_21", 0, 0, {}]]], "class_name": "Conv2D"}, {"config": {"dtype": "float32", "beta_regularizer": null, "momentum": 0.99, "gamma_constraint": null, "epsilon": 0.001, "scale": true, "center": true, "name": "batch_normalization_22", "beta_constraint": null, "gamma_initializer": {"config": {}, "class_name": "Ones"}, "moving_variance_initializer": {"config": {}, "class_name": "Ones"}, "beta_initializer": {"config": {}, "class_name": "Zeros"}, "trainable": true, "axis": 3, "moving_mean_initializer": {"config": {}, "class_name": "Zeros"}, "gamma_regularizer": null}, "name": "batch_normalization_22", "inbound_nodes": [[["conv2d_22", 0, 0, {}]]], "class_name": "BatchNormalization"}, {"config": {"activation": "relu", "name": "activation_22", "dtype": "float32", "trainable": true}, "name": "activation_22", "inbound_nodes": [[["batch_normalization_22", 0, 0, {}]]], "class_name": "Activation"}, {"config": {"activation": "linear", "use_bias": true, "bias_initializer": {"config": {}, "class_name": "Zeros"}, "bias_constraint": null, "kernel_regularizer": null, "dtype": "float32", "data_format": "channels_last", "name": "conv2d_23", "kernel_constraint": null, "padding": "same", "filters": 64, "kernel_size": [7, 7], "strides": [1, 1], "bias_regularizer": null, "trainable": true, "dilation_rate": [1, 1], "kernel_initializer": {"config": {"scale": 1.0, "distribution": "uniform", "seed": null, "mode": "fan_avg"}, "class_name": "VarianceScaling"}, "activity_regularizer": null}, "name": "conv2d_23", "inbound_nodes": [[["activation_22", 0, 0, {}]]], "class_name": "Conv2D"}, {"config": {"dtype": "float32", "beta_regularizer": null, "momentum": 0.99, "gamma_constraint": null, "epsilon": 0.001, "scale": true, "center": true, "name": "batch_normalization_23", "beta_constraint": null, "gamma_initializer": {"config": {}, "class_name": "Ones"}, "moving_variance_initializer": {"config": {}, "class_name": "Ones"}, "beta_initializer": {"config": {}, "class_name": "Zeros"}, "trainable": true, "axis": 3, "moving_mean_initializer": {"config": {}, "class_name": "Zeros"}, "gamma_regularizer": null}, "name": "batch_normalization_23", "inbound_nodes": [[["conv2d_23", 0, 0, {}]]], "class_name": "BatchNormalization"}, {"config": {"activation": "relu", "name": "activation_23", "dtype": "float32", "trainable": true}, "name": "activation_23", "inbound_nodes": [[["batch_normalization_23", 0, 0, {}]]], "class_name": "Activation"}, {"config": {"name": "max_pooling_with_indices_9", "dtype": "float32", "trainable": true}, "name": "max_pooling_with_indices_9", "inbound_nodes": [[["activation_23", 0, 0, {}]]], "class_name": "MaxPoolingWithIndices"}, {"config": {"activation": "linear", "use_bias": true, "bias_initializer": {"config": {}, "class_name": "Zeros"}, "bias_constraint": null, "kernel_regularizer": null, "dtype": "float32", "data_format": "channels_last", "name": "conv2d_24", "kernel_constraint": null, "padding": "same", "filters": 64, "kernel_size": [7, 7], "strides": [1, 1], "bias_regularizer": null, "trainable": true, "dilation_rate": [1, 1], "kernel_initializer": {"config": {"scale": 1.0, "distribution": "uniform", "seed": null, "mode": "fan_avg"}, "class_name": "VarianceScaling"}, "activity_regularizer": null}, "name": "conv2d_24", "inbound_nodes": [[["max_pooling_with_indices_9", 0, 0, {}]]], "class_name": "Conv2D"}, {"config": {"dtype": "float32", "beta_regularizer": null, "momentum": 0.99, "gamma_constraint": null, "epsilon": 0.001, "scale": true, "center": true, "name": "batch_normalization_24", "beta_constraint": null, "gamma_initializer": {"config": {}, "class_name": "Ones"}, "moving_variance_initializer": {"config": {}, "class_name": "Ones"}, "beta_initializer": {"config": {}, "class_name": "Zeros"}, "trainable": true, "axis": 3, "moving_mean_initializer": {"config": {}, "class_name": "Zeros"}, "gamma_regularizer": null}, "name": "batch_normalization_24", "inbound_nodes": [[["conv2d_24", 0, 0, {}]]], "class_name": "BatchNormalization"}, {"config": {"activation": "relu", "name": "activation_24", "dtype": "float32", "trainable": true}, "name": "activation_24", "inbound_nodes": [[["batch_normalization_24", 0, 0, {}]]], "class_name": "Activation"}, {"config": {"activation": "linear", "use_bias": true, "bias_initializer": {"config": {}, "class_name": "Zeros"}, "bias_constraint": null, "kernel_regularizer": null, "dtype": "float32", "data_format": "channels_last", "name": "conv2d_25", "kernel_constraint": null, "padding": "same", "filters": 64, "kernel_size": [7, 7], "strides": [1, 1], "bias_regularizer": null, "trainable": true, "dilation_rate": [1, 1], "kernel_initializer": {"config": {"scale": 1.0, "distribution": "uniform", "seed": null, "mode": "fan_avg"}, "class_name": "VarianceScaling"}, "activity_regularizer": null}, "name": "conv2d_25", "inbound_nodes": [[["activation_24", 0, 0, {}]]], "class_name": "Conv2D"}, {"config": {"dtype": "float32", "beta_regularizer": null, "momentum": 0.99, "gamma_constraint": null, "epsilon": 0.001, "scale": true, "center": true, "name": "batch_normalization_25", "beta_constraint": null, "gamma_initializer": {"config": {}, "class_name": "Ones"}, "moving_variance_initializer": {"config": {}, "class_name": "Ones"}, "beta_initializer": {"config": {}, "class_name": "Zeros"}, "trainable": true, "axis": 3, "moving_mean_initializer": {"config": {}, "class_name": "Zeros"}, "gamma_regularizer": null}, "name": "batch_normalization_25", "inbound_nodes": [[["conv2d_25", 0, 0, {}]]], "class_name": "BatchNormalization"}, {"config": {"activation": "relu", "name": "activation_25", "dtype": "float32", "trainable": true}, "name": "activation_25", "inbound_nodes": [[["batch_normalization_25", 0, 0, {}]]], "class_name": "Activation"}, {"config": {"activation": "linear", "use_bias": true, "bias_initializer": {"config": {}, "class_name": "Zeros"}, "bias_constraint": null, "kernel_regularizer": null, "dtype": "float32", "data_format": "channels_last", "name": "conv2d_26", "kernel_constraint": null, "padding": "same", "filters": 64, "kernel_size": [7, 7], "strides": [1, 1], "bias_regularizer": null, "trainable": true, "dilation_rate": [1, 1], "kernel_initializer": {"config": {"scale": 1.0, "distribution": "uniform", "seed": null, "mode": "fan_avg"}, "class_name": "VarianceScaling"}, "activity_regularizer": null}, "name": "conv2d_26", "inbound_nodes": [[["activation_25", 0, 0, {}]]], "class_name": "Conv2D"}, {"config": {"dtype": "float32", "beta_regularizer": null, "momentum": 0.99, "gamma_constraint": null, "epsilon": 0.001, "scale": true, "center": true, "name": "batch_normalization_26", "beta_constraint": null, "gamma_initializer": {"config": {}, "class_name": "Ones"}, "moving_variance_initializer": {"config": {}, "class_name": "Ones"}, "beta_initializer": {"config": {}, "class_name": "Zeros"}, "trainable": true, "axis": 3, "moving_mean_initializer": {"config": {}, "class_name": "Zeros"}, "gamma_regularizer": null}, "name": "batch_normalization_26", "inbound_nodes": [[["conv2d_26", 0, 0, {}]]], "class_name": "BatchNormalization"}, {"config": {"activation": "relu", "name": "activation_26", "dtype": "float32", "trainable": true}, "name": "activation_26", "inbound_nodes": [[["batch_normalization_26", 0, 0, {}]]], "class_name": "Activation"}, {"config": {"name": "max_pooling_with_indices_10", "dtype": "float32", "trainable": true}, "name": "max_pooling_with_indices_10", "inbound_nodes": [[["activation_26", 0, 0, {}]]], "class_name": "MaxPoolingWithIndices"}, {"config": {"name": "up_sampling_with_indices_2", "dtype": "float32", "trainable": true}, "name": "up_sampling_with_indices_2", "inbound_nodes": [[["max_pooling_with_indices_10", 0, 0, {}], ["max_pooling_with_indices_10", 0, 1, {}]]], "class_name": "UpSamplingWithIndices"}, {"config": {"activation": "linear", "use_bias": true, "bias_initializer": {"config": {}, "class_name": "Zeros"}, "bias_constraint": null, "kernel_regularizer": null, "dtype": "float32", "data_format": "channels_last", "name": "conv2d_27", "kernel_constraint": null, "padding": "same", "filters": 64, "kernel_size": [7, 7], "strides": [1, 1], "bias_regularizer": null, "trainable": true, "dilation_rate": [1, 1], "kernel_initializer": {"config": {"scale": 1.0, "distribution": "uniform", "seed": null, "mode": "fan_avg"}, "class_name": "VarianceScaling"}, "activity_regularizer": null}, "name": "conv2d_27", "inbound_nodes": [[["up_sampling_with_indices_2", 0, 0, {}]]], "class_name": "Conv2D"}, {"config": {"dtype": "float32", "beta_regularizer": null, "momentum": 0.99, "gamma_constraint": null, "epsilon": 0.001, "scale": true, "center": true, "name": "batch_normalization_27", "beta_constraint": null, "gamma_initializer": {"config": {}, "class_name": "Ones"}, "moving_variance_initializer": {"config": {}, "class_name": "Ones"}, "beta_initializer": {"config": {}, "class_name": "Zeros"}, "trainable": true, "axis": 3, "moving_mean_initializer": {"config": {}, "class_name": "Zeros"}, "gamma_regularizer": null}, "name": "batch_normalization_27", "inbound_nodes": [[["conv2d_27", 0, 0, {}]]], "class_name": "BatchNormalization"}, {"config": {"activation": "relu", "name": "activation_27", "dtype": "float32", "trainable": true}, "name": "activation_27", "inbound_nodes": [[["batch_normalization_27", 0, 0, {}]]], "class_name": "Activation"}, {"config": {"activation": "linear", "use_bias": true, "bias_initializer": {"config": {}, "class_name": "Zeros"}, "bias_constraint": null, "kernel_regularizer": null, "dtype": "float32", "data_format": "channels_last", "name": "conv2d_28", "kernel_constraint": null, "padding": "same", "filters": 64, "kernel_size": [7, 7], "strides": [1, 1], "bias_regularizer": null, "trainable": true, "dilation_rate": [1, 1], "kernel_initializer": {"config": {"scale": 1.0, "distribution": "uniform", "seed": null, "mode": "fan_avg"}, "class_name": "VarianceScaling"}, "activity_regularizer": null}, "name": "conv2d_28", "inbound_nodes": [[["activation_27", 0, 0, {}]]], "class_name": "Conv2D"}, {"config": {"dtype": "float32", "beta_regularizer": null, "momentum": 0.99, "gamma_constraint": null, "epsilon": 0.001, "scale": true, "center": true, "name": "batch_normalization_28", "beta_constraint": null, "gamma_initializer": {"config": {}, "class_name": "Ones"}, "moving_variance_initializer": {"config": {}, "class_name": "Ones"}, "beta_initializer": {"config": {}, "class_name": "Zeros"}, "trainable": true, "axis": 3, "moving_mean_initializer": {"config": {}, "class_name": "Zeros"}, "gamma_regularizer": null}, "name": "batch_normalization_28", "inbound_nodes": [[["conv2d_28", 0, 0, {}]]], "class_name": "BatchNormalization"}, {"config": {"activation": "relu", "name": "activation_28", "dtype": "float32", "trainable": true}, "name": "activation_28", "inbound_nodes": [[["batch_normalization_28", 0, 0, {}]]], "class_name": "Activation"}, {"config": {"activation": "linear", "use_bias": true, "bias_initializer": {"config": {}, "class_name": "Zeros"}, "bias_constraint": null, "kernel_regularizer": null, "dtype": "float32", "data_format": "channels_last", "name": "conv2d_29", "kernel_constraint": null, "padding": "same", "filters": 64, "kernel_size": [7, 7], "strides": [1, 1], "bias_regularizer": null, "trainable": true, "dilation_rate": [1, 1], "kernel_initializer": {"config": {"scale": 1.0, "distribution": "uniform", "seed": null, "mode": "fan_avg"}, "class_name": "VarianceScaling"}, "activity_regularizer": null}, "name": "conv2d_29", "inbound_nodes": [[["activation_28", 0, 0, {}]]], "class_name": "Conv2D"}, {"config": {"dtype": "float32", "beta_regularizer": null, "momentum": 0.99, "gamma_constraint": null, "epsilon": 0.001, "scale": true, "center": true, "name": "batch_normalization_29", "beta_constraint": null, "gamma_initializer": {"config": {}, "class_name": "Ones"}, "moving_variance_initializer": {"config": {}, "class_name": "Ones"}, "beta_initializer": {"config": {}, "class_name": "Zeros"}, "trainable": true, "axis": 3, "moving_mean_initializer": {"config": {}, "class_name": "Zeros"}, "gamma_regularizer": null}, "name": "batch_normalization_29", "inbound_nodes": [[["conv2d_29", 0, 0, {}]]], "class_name": "BatchNormalization"}, {"config": {"activation": "relu", "name": "activation_29", "dtype": "float32", "trainable": true}, "name": "activation_29", "inbound_nodes": [[["batch_normalization_29", 0, 0, {}]]], "class_name": "Activation"}, {"config": {"name": "up_sampling_with_indices_3", "dtype": "float32", "trainable": true}, "name": "up_sampling_with_indices_3", "inbound_nodes": [[["activation_29", 0, 0, {}], ["max_pooling_with_indices_9", 0, 1, {}]]], "class_name": "UpSamplingWithIndices"}, {"config": {"activation": "linear", "use_bias": true, "bias_initializer": {"config": {}, "class_name": "Zeros"}, "bias_constraint": null, "kernel_regularizer": null, "dtype": "float32", "data_format": "channels_last", "name": "conv2d_30", "kernel_constraint": null, "padding": "same", "filters": 64, "kernel_size": [7, 7], "strides": [1, 1], "bias_regularizer": null, "trainable": true, "dilation_rate": [1, 1], "kernel_initializer": {"config": {"scale": 1.0, "distribution": "uniform", "seed": null, "mode": "fan_avg"}, "class_name": "VarianceScaling"}, "activity_regularizer": null}, "name": "conv2d_30", "inbound_nodes": [[["up_sampling_with_indices_3", 0, 0, {}]]], "class_name": "Conv2D"}, {"config": {"dtype": "float32", "beta_regularizer": null, "momentum": 0.99, "gamma_constraint": null, "epsilon": 0.001, "scale": true, "center": true, "name": "batch_normalization_30", "beta_constraint": null, "gamma_initializer": {"config": {}, "class_name": "Ones"}, "moving_variance_initializer": {"config": {}, "class_name": "Ones"}, "beta_initializer": {"config": {}, "class_name": "Zeros"}, "trainable": true, "axis": 3, "moving_mean_initializer": {"config": {}, "class_name": "Zeros"}, "gamma_regularizer": null}, "name": "batch_normalization_30", "inbound_nodes": [[["conv2d_30", 0, 0, {}]]], "class_name": "BatchNormalization"}, {"config": {"activation": "relu", "name": "activation_30", "dtype": "float32", "trainable": true}, "name": "activation_30", "inbound_nodes": [[["batch_normalization_30", 0, 0, {}]]], "class_name": "Activation"}, {"config": {"activation": "linear", "use_bias": true, "bias_initializer": {"config": {}, "class_name": "Zeros"}, "bias_constraint": null, "kernel_regularizer": null, "dtype": "float32", "data_format": "channels_last", "name": "conv2d_31", "kernel_constraint": null, "padding": "same", "filters": 64, "kernel_size": [7, 7], "strides": [1, 1], "bias_regularizer": null, "trainable": true, "dilation_rate": [1, 1], "kernel_initializer": {"config": {"scale": 1.0, "distribution": "uniform", "seed": null, "mode": "fan_avg"}, "class_name": "VarianceScaling"}, "activity_regularizer": null}, "name": "conv2d_31", "inbound_nodes": [[["activation_30", 0, 0, {}]]], "class_name": "Conv2D"}, {"config": {"dtype": "float32", "beta_regularizer": null, "momentum": 0.99, "gamma_constraint": null, "epsilon": 0.001, "scale": true, "center": true, "name": "batch_normalization_31", "beta_constraint": null, "gamma_initializer": {"config": {}, "class_name": "Ones"}, "moving_variance_initializer": {"config": {}, "class_name": "Ones"}, "beta_initializer": {"config": {}, "class_name": "Zeros"}, "trainable": true, "axis": 3, "moving_mean_initializer": {"config": {}, "class_name": "Zeros"}, "gamma_regularizer": null}, "name": "batch_normalization_31", "inbound_nodes": [[["conv2d_31", 0, 0, {}]]], "class_name": "BatchNormalization"}, {"config": {"activation": "relu", "name": "activation_31", "dtype": "float32", "trainable": true}, "name": "activation_31", "inbound_nodes": [[["batch_normalization_31", 0, 0, {}]]], "class_name": "Activation"}, {"config": {"activation": "linear", "use_bias": true, "bias_initializer": {"config": {}, "class_name": "Zeros"}, "bias_constraint": null, "kernel_regularizer": null, "dtype": "float32", "data_format": "channels_last", "name": "conv2d_32", "kernel_constraint": null, "padding": "same", "filters": 64, "kernel_size": [7, 7], "strides": [1, 1], "bias_regularizer": null, "trainable": true, "dilation_rate": [1, 1], "kernel_initializer": {"config": {"scale": 1.0, "distribution": "uniform", "seed": null, "mode": "fan_avg"}, "class_name": "VarianceScaling"}, "activity_regularizer": null}, "name": "conv2d_32", "inbound_nodes": [[["activation_31", 0, 0, {}]]], "class_name": "Conv2D"}, {"config": {"dtype": "float32", "beta_regularizer": null, "momentum": 0.99, "gamma_constraint": null, "epsilon": 0.001, "scale": true, "center": true, "name": "batch_normalization_32", "beta_constraint": null, "gamma_initializer": {"config": {}, "class_name": "Ones"}, "moving_variance_initializer": {"config": {}, "class_name": "Ones"}, "beta_initializer": {"config": {}, "class_name": "Zeros"}, "trainable": true, "axis": 3, "moving_mean_initializer": {"config": {}, "class_name": "Zeros"}, "gamma_regularizer": null}, "name": "batch_normalization_32", "inbound_nodes": [[["conv2d_32", 0, 0, {}]]], "class_name": "BatchNormalization"}, {"config": {"activation": "relu", "name": "activation_32", "dtype": "float32", "trainable": true}, "name": "activation_32", "inbound_nodes": [[["batch_normalization_32", 0, 0, {}]]], "class_name": "Activation"}, {"config": {"name": "up_sampling_with_indices_4", "dtype": "float32", "trainable": true}, "name": "up_sampling_with_indices_4", "inbound_nodes": [[["activation_32", 0, 0, {}], ["max_pooling_with_indices_8", 0, 1, {}]]], "class_name": "UpSamplingWithIndices"}, {"config": {"activation": "linear", "use_bias": true, "bias_initializer": {"config": {}, "class_name": "Zeros"}, "bias_constraint": null, "kernel_regularizer": null, "dtype": "float32", "data_format": "channels_last", "name": "conv2d_33", "kernel_constraint": null, "padding": "same", "filters": 64, "kernel_size": [7, 7], "strides": [1, 1], "bias_regularizer": null, "trainable": true, "dilation_rate": [1, 1], "kernel_initializer": {"config": {"scale": 1.0, "distribution": "uniform", "seed": null, "mode": "fan_avg"}, "class_name": "VarianceScaling"}, "activity_regularizer": null}, "name": "conv2d_33", "inbound_nodes": [[["up_sampling_with_indices_4", 0, 0, {}]]], "class_name": "Conv2D"}, {"config": {"dtype": "float32", "beta_regularizer": null, "momentum": 0.99, "gamma_constraint": null, "epsilon": 0.001, "scale": true, "center": true, "name": "batch_normalization_33", "beta_constraint": null, "gamma_initializer": {"config": {}, "class_name": "Ones"}, "moving_variance_initializer": {"config": {}, "class_name": "Ones"}, "beta_initializer": {"config": {}, "class_name": "Zeros"}, "trainable": true, "axis": 3, "moving_mean_initializer": {"config": {}, "class_name": "Zeros"}, "gamma_regularizer": null}, "name": "batch_normalization_33", "inbound_nodes": [[["conv2d_33", 0, 0, {}]]], "class_name": "BatchNormalization"}, {"config": {"activation": "relu", "name": "activation_33", "dtype": "float32", "trainable": true}, "name": "activation_33", "inbound_nodes": [[["batch_normalization_33", 0, 0, {}]]], "class_name": "Activation"}, {"config": {"activation": "linear", "use_bias": true, "bias_initializer": {"config": {}, "class_name": "Zeros"}, "bias_constraint": null, "kernel_regularizer": null, "dtype": "float32", "data_format": "channels_last", "name": "conv2d_34", "kernel_constraint": null, "padding": "same", "filters": 64, "kernel_size": [7, 7], "strides": [1, 1], "bias_regularizer": null, "trainable": true, "dilation_rate": [1, 1], "kernel_initializer": {"config": {"scale": 1.0, "distribution": "uniform", "seed": null, "mode": "fan_avg"}, "class_name": "VarianceScaling"}, "activity_regularizer": null}, "name": "conv2d_34", "inbound_nodes": [[["activation_33", 0, 0, {}]]], "class_name": "Conv2D"}, {"config": {"dtype": "float32", "beta_regularizer": null, "momentum": 0.99, "gamma_constraint": null, "epsilon": 0.001, "scale": true, "center": true, "name": "batch_normalization_34", "beta_constraint": null, "gamma_initializer": {"config": {}, "class_name": "Ones"}, "moving_variance_initializer": {"config": {}, "class_name": "Ones"}, "beta_initializer": {"config": {}, "class_name": "Zeros"}, "trainable": true, "axis": 3, "moving_mean_initializer": {"config": {}, "class_name": "Zeros"}, "gamma_regularizer": null}, "name": "batch_normalization_34", "inbound_nodes": [[["conv2d_34", 0, 0, {}]]], "class_name": "BatchNormalization"}, {"config": {"activation": "relu", "name": "activation_34", "dtype": "float32", "trainable": true}, "name": "activation_34", "inbound_nodes": [[["batch_normalization_34", 0, 0, {}]]], "class_name": "Activation"}, {"config": {"activation": "linear", "use_bias": true, "bias_initializer": {"config": {}, "class_name": "Zeros"}, "bias_constraint": null, "kernel_regularizer": null, "dtype": "float32", "data_format": "channels_last", "name": "conv2d_35", "kernel_constraint": null, "padding": "same", "filters": 64, "kernel_size": [7, 7], "strides": [1, 1], "bias_regularizer": null, "trainable": true, "dilation_rate": [1, 1], "kernel_initializer": {"config": {"scale": 1.0, "distribution": "uniform", "seed": null, "mode": "fan_avg"}, "class_name": "VarianceScaling"}, "activity_regularizer": null}, "name": "conv2d_35", "inbound_nodes": [[["activation_34", 0, 0, {}]]], "class_name": "Conv2D"}, {"config": {"dtype": "float32", "beta_regularizer": null, "momentum": 0.99, "gamma_constraint": null, "epsilon": 0.001, "scale": true, "center": true, "name": "batch_normalization_35", "beta_constraint": null, "gamma_initializer": {"config": {}, "class_name": "Ones"}, "moving_variance_initializer": {"config": {}, "class_name": "Ones"}, "beta_initializer": {"config": {}, "class_name": "Zeros"}, "trainable": true, "axis": 3, "moving_mean_initializer": {"config": {}, "class_name": "Zeros"}, "gamma_regularizer": null}, "name": "batch_normalization_35", "inbound_nodes": [[["conv2d_35", 0, 0, {}]]], "class_name": "BatchNormalization"}, {"config": {"activation": "relu", "name": "activation_35", "dtype": "float32", "trainable": true}, "name": "activation_35", "inbound_nodes": [[["batch_normalization_35", 0, 0, {}]]], "class_name": "Activation"}, {"config": {"name": "up_sampling_with_indices_5", "dtype": "float32", "trainable": true}, "name": "up_sampling_with_indices_5", "inbound_nodes": [[["activation_35", 0, 0, {}], ["max_pooling_with_indices_7", 0, 1, {}]]], "class_name": "UpSamplingWithIndices"}, {"config": {"activation": "linear", "use_bias": true, "bias_initializer": {"config": {}, "class_name": "Zeros"}, "bias_constraint": null, "kernel_regularizer": null, "dtype": "float32", "data_format": "channels_last", "name": "conv2d_36", "kernel_constraint": null, "padding": "same", "filters": 64, "kernel_size": [7, 7], "strides": [1, 1], "bias_regularizer": null, "trainable": true, "dilation_rate": [1, 1], "kernel_initializer": {"config": {"scale": 1.0, "distribution": "uniform", "seed": null, "mode": "fan_avg"}, "class_name": "VarianceScaling"}, "activity_regularizer": null}, "name": "conv2d_36", "inbound_nodes": [[["up_sampling_with_indices_5", 0, 0, {}]]], "class_name": "Conv2D"}, {"config": {"dtype": "float32", "beta_regularizer": null, "momentum": 0.99, "gamma_constraint": null, "epsilon": 0.001, "scale": true, "center": true, "name": "batch_normalization_36", "beta_constraint": null, "gamma_initializer": {"config": {}, "class_name": "Ones"}, "moving_variance_initializer": {"config": {}, "class_name": "Ones"}, "beta_initializer": {"config": {}, "class_name": "Zeros"}, "trainable": true, "axis": 3, "moving_mean_initializer": {"config": {}, "class_name": "Zeros"}, "gamma_regularizer": null}, "name": "batch_normalization_36", "inbound_nodes": [[["conv2d_36", 0, 0, {}]]], "class_name": "BatchNormalization"}, {"config": {"activation": "relu", "name": "activation_36", "dtype": "float32", "trainable": true}, "name": "activation_36", "inbound_nodes": [[["batch_normalization_36", 0, 0, {}]]], "class_name": "Activation"}, {"config": {"activation": "linear", "use_bias": true, "bias_initializer": {"config": {}, "class_name": "Zeros"}, "bias_constraint": null, "kernel_regularizer": null, "dtype": "float32", "data_format": "channels_last", "name": "conv2d_37", "kernel_constraint": null, "padding": "same", "filters": 64, "kernel_size": [7, 7], "strides": [1, 1], "bias_regularizer": null, "trainable": true, "dilation_rate": [1, 1], "kernel_initializer": {"config": {"scale": 1.0, "distribution": "uniform", "seed": null, "mode": "fan_avg"}, "class_name": "VarianceScaling"}, "activity_regularizer": null}, "name": "conv2d_37", "inbound_nodes": [[["activation_36", 0, 0, {}]]], "class_name": "Conv2D"}, {"config": {"dtype": "float32", "beta_regularizer": null, "momentum": 0.99, "gamma_constraint": null, "epsilon": 0.001, "scale": true, "center": true, "name": "batch_normalization_37", "beta_constraint": null, "gamma_initializer": {"config": {}, "class_name": "Ones"}, "moving_variance_initializer": {"config": {}, "class_name": "Ones"}, "beta_initializer": {"config": {}, "class_name": "Zeros"}, "trainable": true, "axis": 3, "moving_mean_initializer": {"config": {}, "class_name": "Zeros"}, "gamma_regularizer": null}, "name": "batch_normalization_37", "inbound_nodes": [[["conv2d_37", 0, 0, {}]]], "class_name": "BatchNormalization"}, {"config": {"activation": "relu", "name": "activation_37", "dtype": "float32", "trainable": true}, "name": "activation_37", "inbound_nodes": [[["batch_normalization_37", 0, 0, {}]]], "class_name": "Activation"}, {"config": {"name": "up_sampling_with_indices_6", "dtype": "float32", "trainable": true}, "name": "up_sampling_with_indices_6", "inbound_nodes": [[["activation_37", 0, 0, {}], ["max_pooling_with_indices_6", 0, 1, {}]]], "class_name": "UpSamplingWithIndices"}, {"config": {"activation": "linear", "use_bias": true, "bias_initializer": {"config": {}, "class_name": "Zeros"}, "bias_constraint": null, "kernel_regularizer": null, "dtype": "float32", "data_format": "channels_last", "name": "conv2d_38", "kernel_constraint": null, "padding": "same", "filters": 64, "kernel_size": [7, 7], "strides": [1, 1], "bias_regularizer": null, "trainable": true, "dilation_rate": [1, 1], "kernel_initializer": {"config": {"scale": 1.0, "distribution": "uniform", "seed": null, "mode": "fan_avg"}, "class_name": "VarianceScaling"}, "activity_regularizer": null}, "name": "conv2d_38", "inbound_nodes": [[["up_sampling_with_indices_6", 0, 0, {}]]], "class_name": "Conv2D"}, {"config": {"dtype": "float32", "beta_regularizer": null, "momentum": 0.99, "gamma_constraint": null, "epsilon": 0.001, "scale": true, "center": true, "name": "batch_normalization_38", "beta_constraint": null, "gamma_initializer": {"config": {}, "class_name": "Ones"}, "moving_variance_initializer": {"config": {}, "class_name": "Ones"}, "beta_initializer": {"config": {}, "class_name": "Zeros"}, "trainable": true, "axis": 3, "moving_mean_initializer": {"config": {}, "class_name": "Zeros"}, "gamma_regularizer": null}, "name": "batch_normalization_38", "inbound_nodes": [[["conv2d_38", 0, 0, {}]]], "class_name": "BatchNormalization"}, {"config": {"activation": "relu", "name": "activation_38", "dtype": "float32", "trainable": true}, "name": "activation_38", "inbound_nodes": [[["batch_normalization_38", 0, 0, {}]]], "class_name": "Activation"}, {"config": {"activation": "linear", "use_bias": true, "bias_initializer": {"config": {}, "class_name": "Zeros"}, "bias_constraint": null, "kernel_regularizer": null, "dtype": "float32", "data_format": "channels_last", "name": "conv2d_39", "kernel_constraint": null, "padding": "same", "filters": 1, "kernel_size": [7, 7], "strides": [1, 1], "bias_regularizer": null, "trainable": true, "dilation_rate": [1, 1], "kernel_initializer": {"config": {"scale": 1.0, "distribution": "uniform", "seed": null, "mode": "fan_avg"}, "class_name": "VarianceScaling"}, "activity_regularizer": null}, "name": "conv2d_39", "inbound_nodes": [[["activation_38", 0, 0, {}]]], "class_name": "Conv2D"}, {"config": {"dtype": "float32", "beta_regularizer": null, "momentum": 0.99, "gamma_constraint": null, "epsilon": 0.001, "scale": true, "center": true, "name": "batch_normalization_39", "beta_constraint": null, "gamma_initializer": {"config": {}, "class_name": "Ones"}, "moving_variance_initializer": {"config": {}, "class_name": "Ones"}, "beta_initializer": {"config": {}, "class_name": "Zeros"}, "trainable": true, "axis": 3, "moving_mean_initializer": {"config": {}, "class_name": "Zeros"}, "gamma_regularizer": null}, "name": "batch_normalization_39", "inbound_nodes": [[["conv2d_39", 0, 0, {}]]], "class_name": "BatchNormalization"}, {"config": {"activation": "relu", "name": "activation_39", "dtype": "float32", "trainable": true}, "name": "activation_39", "inbound_nodes": [[["batch_normalization_39", 0, 0, {}]]], "class_name": "Activation"}, {"config": {"activation": "sigmoid", "name": "activation_40", "dtype": "float32", "trainable": true}, "name": "activation_40", "inbound_nodes": [[["activation_39", 0, 0, {}]]], "class_name": "Activation"}, {"config": {"data_format": "channels_last", "name": "cropping2d_1", "dtype": "float32", "trainable": true, "cropping": [[12, 12], [16, 16]]}, "name": "cropping2d_1", "inbound_nodes": [[["activation_40", 0, 0, {}]]], "class_name": "Cropping2D"}], "output_layers": [["cropping2d_1", 0, 0]]}, "class_name": "Model", "backend": "tensorflow", "keras_version": "2.3.1"}